…
_________________________________________________________________
conv_dw_13_relu (ReLU)       (None, None, None, 1024)  0         
_________________________________________________________________
conv_pw_13 (Conv2D)          (None, None, None, 1024)  1048576   
_________________________________________________________________
conv_pw_13_bn (BatchNormaliz (None, None, None, 1024)  4096      
_________________________________________________________________
conv_pw_13_relu (ReLU)       (None, None, None, 1024)  0         
_________________________________________________________________
global_max_pooling2d_1 (Glob (None, 1024)              0         
_________________________________________________________________
dense_1 (Dense)              (None, 64)                65600     
_________________________________________________________________
activation_1 (Activation)    (None, 64)                0         
_________________________________________________________________
dropout_1 (Dropout)          (None, 64)                0         
_________________________________________________________________
dense_2 (Dense)              (None, 32)                2080      
_________________________________________________________________
activation_2 (Activation)    (None, 32)                0         
_________________________________________________________________
dense_3 (Dense)              (None, 8)                 264       
=================================================================
Total params: 3,296,808
Trainable params: 3,274,920
Non-trainable params: 21,888
_________________________________________________________________

Process finished with exit code 1


方法1：只保存模型的权重和偏置
这种方法不会保存整个网络的结构，只是保存模型的权重和偏置，所以在后期恢复模型之前，必须手动创建和之前模型一模一样的模型，以保证权重和偏置的维度和保存之前的相同。

model.save_weights('./save_weights/my_save_weights')
…
